snake_ai/model/model.pth (torch, 16799 bytes, 4 tensors)

linear1.weight f4 [256, 11]
00000000: 0663 c2be 0355 dfbe 7e65 613f 8eb5 b83a
00000010: 8e09 90be f349 fdbe 83bf a1be 9ac3 ee3d
00000020: 36ac 26be d9f0 8d3d 2867 99be 0c79 11bf
00000030: 246d 013f ea9d d23d 45ac fdbe c582 0dbe
00000040: f1be 01be 998e e0bd 7526 8fbe eef1 41bd
00000050: abec 16be 67f4 6dbe 936c 923e 39a2 30bf
00000060: e2f6 d13e 6b52 86be fbf0 f43e c533 6fbe
00000070: cfd6 773e a984 993e d97f 10bf 0803 41be
00000080: 6881 193e 963f f73c 503d 803f 5e39 14be
00000090: 49e5 823e 855a ff3d 25fb 9bbe e108 213d
000000a0: 4c4a a0bd 28f0 9e3e d531 7cbe 9a96 adbe
000000b0: e762 013f b58e 1c3f fe13 d2be 8d97 8d3d
000000c0: 5bf0 7f3e 3f74 653d 31a8 fd3d b29a 6e3e
000000d0: 9b32 b0bd c046 6e3e 44d3 f4bb 2323 b13e
000000e0: 02c2 d83e f1c8 033f 183f 843c 9005 3abd
000000f0: 1ae5 9dbd 9187 ae3c 4c56 d33e fa30 dd3e
00000100: 3f85 e03e b2d9 c93e 642a 303e ef1b f53e
00000110: c5c0 eb3e 2101 ce3c 9558 92be db5f e43c
00000120: 5bcd 33be b426 98be 0af6 dd3e a6b9 583e
00000130: e992 a33e 5919 0c3d 6ecd 173f ed94 d9be
00000140: 1dd4 a83d 304e 62ba 3c58 063e 0976 b33d
00000150: b5be 06be 89a6 0abc 8f79 27be 179c c1bd
00000160: 6e3a 3d3e 4646 47bd 8641 803d b1bc 40be
00000170: 718e 4c3e a5fb 153f 0f4a 01bf 34c9 9f3e
00000180: 1c32 bebd fd9d fabe 6768 59be 3ee8 4abe
00000190: 8e8f bd3d d055 0bbd f8f4 d63d d080 c9bc
000001a0: 7896 073d c054 18bd fbbd 89bd 986f 6dbe
000001b0: d974 1fbe 0dbe 91be 4c5d 953e 3321 3d3e
000001c0: cc58 023d aa4d 263b 7829 2fbd ae28 8dbd
000001d0: 0936 43bc fee8 e43d 8081 5a3e 10c5 2c3e
000001e0: fd08 073e b0f1 043f 3283 983e da5c 673e
000001f0: 07dc dfbd 4d5e 5cbe 7e24 47be a0b7 0cbe
00000200: 14e4 983e a4e1 d93e a2eb c33e 75e9 bd3e
00000210: ac2b 593e c2f4 01be 4ca6 2dbd 533a 713e
00000220: 0c75 bf3e 7ccf 3b3c 139a a0be fa57 a0be
00000230: fadc 09bf 5834 bcbd 225f 473e 3cb5 9abd
00000240: 81e0 ebbe 0538 063f e4aa c73d 10f2 ba3e
00000250: 5b5c 0c3e e9fc 4d3e 0431 96be 49e2 a8be
00000260: a998 40be fa3b 53be 3419 0e3d 231c 28be
00000270: a004 8bbe 0493 5d3e 54f4 843e 2c52 753e
00000280: 6035 67bc 2270 32be 18cf 86be 54bd 67be
00000290: 7c30 8dbd 9bc1 533c 1f29 8ebe 00ca b43d
000002a0: 565d 893b ea0d 5ebe f69b b13c ecb1 74bd
000002b0: 2b0c 03be 225e 99be b831 47bd f8fd 3e3d
000002c0: 021c 4a3e 588d 443c 710e 7e3e f874 4ebd
000002d0: 3060 f33d c993 f9bd 5d36 753d 5ef2 5fbc
000002e0: 00d8 443d 23bd 6c3e 3416 9d3d 3832 1dbd
000002f0: ef04 cbbe 6e32 1e3f 4f73 d4be 740e cdbe
00000300: fa98 9e3e a4f2 7e3e fd51 8cbe a9b1 c8be
00000310: 9e78 cd3e 331b b13e 090e 8d3e 540d d63d
00000320: 0e7b 9a3e e280 15be 2d52 1dbd 0362 b5bd
00000330: 79eb bdbb b328 023f 5fe3 e03e 4822 023f
00000340: f844 d73e 9c0b d93c 6b92 1f3f 01fa ddbb
00000350: be13 ed3d 770c 9ebe 6c83 60be 9b8f c53e
00000360: 25f6 9fbe c49c 503e 557d b0bd 6d90 873e
00000370: e51b 393d 5456 a3be 98d2 e23e e35e 49be
00000380: 2e9f b8bd 6d8d fcbe 9764 05bf 1ff3 0a3e
00000390: 353d b33d 4b6d 12bf d696 9abe ce1e b6be
000003a0: 7478 d6be cb8c 423f b78b a0be 4eb5 de3d
000003b0: 0224 c53d b744 223e 94fc 98be 4add 8b3c
000003c0: 85ab 5bbe 5d59 293e 0915 8abe 1dec d13e
000003d0: f5b1 a4be 6beb 63bd 79d7 b23e 3383 863e
000003e0: 5424 973e c036 c0bd 4ec5 2ebd 418d febd
000003f0: 3ccb 4ebe 7d9b e73e b496 393e c8b5 323e
-0.37966174 -0.43619546 0.8804549 0.0014092193 -0.2813229 -0.4947048 -0.31591424 0.11658402
-0.16276631 0.06930704 -0.29961514 -0.5682533 0.5055716 0.10284026 -0.49545494 -0.13819416
-0.12670495 -0.10964698 -0.27959028 -0.047349863 -0.14738719 -0.23237763 0.2859846 -0.6899753
0.4100867 -0.26234755 0.47840104 -0.23359592 0.24203037 0.29984024 -0.5644508 -0.18848813
0.14990771 0.030181687 1.0018711 -0.14475009 0.25565556 0.12468437 -0.30465046 0.03931511
-0.07826671 0.310426 -0.24628384 -0.33903962 0.5054154 0.61155254 -0.41030878 0.06913672
0.24994032 0.056019064 0.123855956 0.23301199 -0.08603402 0.23269176 -0.007471474 0.3459712
0.42335516 0.5147849 0.016143367 -0.04541546 -0.07709713 0.021304877 0.41276777 0.4320143
0.4385166 0.394239 0.1720367 0.47872874 0.4604551 0.025147023 -0.28583208 0.027877739
-0.17558806 -0.29717028 0.43351775 0.2116457 0.3194802 0.03420386 0.59297836 -0.42496434
0.082435824 -0.00086328667 0.13119596 0.08762748 -0.13158686 -0.008462557 -0.16354965 -0.094536
0.1847932 -0.048651002 0.062624976 -0.1882198 0.19976212 0.58587104 -0.5050363 0.31208193
-0.09286901 -0.4894866 -0.21231233 -0.19815156 0.092558965 -0.034017384 0.10495943 -0.024597555
0.033102483 -0.0371902 -0.06725689 -0.23187101 -0.15571918 -0.2846531 0.29172742 0.18469696
0.031822965 0.0025375881 -0.042764157 -0.06892525 -0.011914738 0.11177252 0.21338463 0.16872048
0.13187023 0.51931286 0.29787594 0.22594014 -0.10930639 -0.21520348 -0.19447514 -0.13741922
0.2986151 0.42554963 0.3826571 0.37092176 0.21208066 -0.12691024 -0.04239492 0.23557405
0.37393987 0.011463042 -0.3136755 -0.3131712 -0.5385281 -0.09189671 0.19469884 -0.07554099
-0.4606972 0.5242923 0.09749392 0.36512804 0.13707106 0.20116009 -0.2933427 -0.32985142
-0.18808235 -0.20628348 0.034692004 -0.16416983 -0.27151966 0.21638113 0.25967658 0.23957127
-0.014111847 -0.17425588 -0.26329875 -0.22630817 -0.06894013 0.012924577 -0.27765748 0.08827591
0.0041920347 -0.21684995 0.021680813 -0.059739992 -0.1279761 -0.2995463 -0.0486314 0.046628922
0.19737247 0.01199659 0.24810196 -0.05040452 0.11883581 -0.12186391 0.059866298 -0.013668625
0.048057556 0.23119025 0.076702505 -0.03837797 -0.39652202 0.617957 -0.41494223 -0.4005009
0.30976087 0.24897248 -0.27406302 -0.39198044 0.40131086 0.34591064 0.2754977 0.10451761
0.30172008 -0.14599946 -0.038408447 -0.08856585 -0.005795893 0.5084335 0.4392347 0.5083356
0.42044806 0.026494794 0.6233279 -0.0067741876 0.11576031 -0.30868885 -0.21925133 0.38586125
-0.3124248 0.20372301 -0.08617655 0.26477376 0.045192618 -0.319018 0.44301295 -0.19665103
-0.09014736 -0.4932665 -0.5210661 0.13569306 0.08751909 -0.5719802 -0.30193204 -0.35570377
-0.41888773 0.75996083 -0.31356594 0.10874425 0.096260086 0.15846525 -0.29880202 0.017073292
-0.21452148 0.16537996 -0.26969174 0.41000453 -0.3216702 -0.055644434 0.34930018 0.26271972
0.29519904 -0.09385443 -0.042668633 -0.12429286 -0.20194715 0.45235816 0.18123895 0.17452157

linear1.bias f4 [256]
00000000: 4736 703d e37c 9d3b 6e15 94be a669 3a3b
00000010: 4f17 dbbe 36ac d2be 483a 81be 0004 a0be
00000020: e147 40bd a98f 56be 64e2 adbe bd95 6cbe
00000030: 948f a03d f53c 113f d9a5 68be 65d0 52be
00000040: 66de 02bf d2cd d3bd f505 e3be 6942 88bc
00000050: 4a8f 4b3d 85c7 c43e be7b 8f3e 01f7 f1bd
00000060: 8857 87be 6b4b 87be b877 913e 3154 c2bd
00000070: c06f 9e3e ef10 b33d 8aa7 33be b0d2 783d
00000080: 84f9 14be e182 ab3f 166a bdbd 89b7 923d
00000090: 86c7 413e 3e49 e7bd 9da9 ac3d 517d 9c3d
000000a0: aa50 a73e 4df3 9dbe 927d 783e 462d 5f3d
000000b0: 4fa4 df3c 9d95 c8bd 7652 dbbd 1843 95bd
000000c0: e342 493d d430 c53c cc87 cebd 80e7 433e
000000d0: 375c c93e 6309 93be 2677 4ebd 5410 c4bd
000000e0: d6d5 89be 3c78 b8bd e0a3 a73d 4bfd b5be
000000f0: c445 a1be 1749 f8bd f523 09be 04ae 91be
00000100: f7f4 043f 4e78 36bd 7ab7 1b3e 1f2b cebd
00000110: a7c4 bfbe 4e8a 33bc aa55 053f 05b3 eebd
00000120: fc35 b5be 29cf 2cbe 7296 96be 81fa 91be
00000130: ebbd 083f 541f bfbd 5c7f cfbd 8bb9 34be
00000140: 4c73 8abd 186e 8c3d 4f12 bb3d 6987 7abe
00000150: f18e 6abe 6aef 203d 09d4 523e 703e 1cbe
00000160: 46c0 233d 4a43 2abd 0d4f f8bd 15ef d2be
00000170: 1a74 2abe 973b 4fbe 6817 99bd 4d3f 68bd
00000180: 30db 923c 48e6 d1be 1641 92be cb9a d2bd
00000190: 6a65 bdbe 521e b8be 0efd 25be 6cfc 24be
000001a0: 717f abbe de9d 72bd 5359 3fbe 9276 cf3e
000001b0: 29c6 9fbe 4685 febe 59d2 333e f5ec 92be
000001c0: e7da eebd 6704 00be aa9f 5c3e d709 02bd
000001d0: e703 003e c3cc c8be 29b4 0b3e b830 2ebd
000001e0: 943f d3be 34e3 e1bd 5585 b83e 9d24 823e
000001f0: 756a 76be 7ad8 80bd 8308 bf3e 7904 2abe
00000200: a337 97be 6599 1ebe 1ac0 69be 6690 a9be
00000210: d16d 54be dca5 26be e1d1 a0be 1d06 dbbd
00000220: 828d 7abe 0d3c e1be 2be2 edbd f4fd 21be
00000230: 5aa6 d3be 8bd0 07be 6e8c aabe 2b57 84be
00000240: 5089 bdbd bf71 ed3d bb1d 4abe 7ace 01be
00000250: 5a08 77be 14b2 ca3d 3123 07bc 5370 09bf
00000260: 2282 92be 3f49 b5bd 51f9 a3be ba31 763e
00000270: d6d5 353d 7554 a8be 2bd8 40be 0adf 7b3e
00000280: 4c97 69be 2aa9 f7bc da89 803d 6360 9fbe
00000290: b017 b3bd edfb 60be e73c 903d 8ad2 73bd
000002a0: 117f b9be 2146 84be c2f3 83be 364a 46be
000002b0: a346 c2bd 23f1 80be 9b10 b6be b98e 5a3d
000002c0: bb11 26be 679e 98bd b4fa d23d 6e02 17ba
000002d0: b7a6 d43d 7188 dcbd 5a63 0bbf dd5f dabe
000002e0: 7d9b 59be e0ac a1be 92cd b2bd 1f18 0ebe
000002f0: 411e 91be cc93 2bbe 75bb 163d 8058 bebd
00000300: 7f84 89be 1b20 b6be bb42 273e cdd4 863d
00000310: e6bf 84be fb87 9fbd ad2c babd eae0 b03e
00000320: b144 afbd 3104 523d 17e9 823d 1a70 3d3e
00000330: 81c2 493e 4c06 1b3e 4848 d3bd 6006 a1be
00000340: 47e4 90be 133d 16be ee09 803e 001c 2dbe
00000350: 7d8c 71be 99af 16be d751 0e3e 7d41 9ebe
00000360: f21e 9fbe 9924 023e 3c79 9ebe b8d4 4cbe
00000370: 4d6a dcbd f45f 3e3d c8aa a9be 29f8 343f
00000380: 084a d8bc d164 f6bd 073e c3bc c70f 843d
00000390: 4424 90be 2bc8 bebd cf97 e1be d964 9cbe
000003a0: 292c adbb 13d7 ac3c 47b6 11bf 2f41 07be
000003b0: a29a fabb 4e9c ccbe df9f f6bd 5b51 32bd
000003c0: 8189 babe 84fd 043d 144f 66bd f062 713d
000003d0: 8f17 19bd 89b0 aabd bc3a 543e d461 3bbe
000003e0: fdc7 843f 5e5f 733e 2a86 483e 13f4 0dbd
000003f0: 524a 2abe d7c2 97be 12db bf3c 6d9e b33e
0.058645513 0.0048061474 -0.289226 0.002844432 -0.4279122 -0.41147012 -0.25239778 -0.31253052
-0.04694355 -0.2095324 -0.33961785 -0.23103996 0.07839885 0.5673364 -0.22719516 -0.20587309
-0.51120603 -0.103419915 -0.44340482 -0.01663323 0.049697198 0.3843347 0.28024095 -0.118146904
-0.2643397 -0.26424727 0.2841165 -0.094887145 0.30944633 0.08743464 -0.1754438 0.060747802
-0.14548308 1.3399316 -0.0924875 0.07163913 0.18923768 -0.11293267 0.08430789 0.0764109
0.3267873 -0.30849686 0.24266651 0.054486535 0.027300028 -0.097941615 -0.107090876 -0.07288188
0.049136054 0.024071135 -0.10084495 0.19131279 0.39328167 -0.287181 -0.050406598 -0.09573427
-0.26920956 -0.09007308 0.081855536 -0.3554481 -0.3149854 -0.12123316 -0.13392623 -0.28453076
0.51936287 -0.044548325 0.1520671 -0.100668184 -0.3745472 -0.010958267 0.5208384 -0.11655239
-0.3539275 -0.168759 -0.29411656 -0.28511432 0.5341479 -0.09332147 -0.10131714 -0.17648904
-0.067602724 0.06856936 0.091343515 -0.24465717 -0.2290609 0.039290823 0.20588697 -0.15258193
0.039978288 -0.041568078 -0.12124453 -0.4119803 -0.16645852 -0.20237575 -0.074751675 -0.056700993
0.017926782 -0.40996003 -0.28565282 -0.10283431 -0.36991435 -0.35960633 -0.16209814 -0.16111916
-0.33495668 -0.059232585 -0.18686418 0.4052015 -0.31205872 -0.49711055 0.1756071 -0.2869641
-0.11662846 -0.1250168 0.21545282 -0.031747665 0.12501489 -0.3921872 0.13642944 -0.04252693
-0.41259444 -0.11029664 0.36039224 0.2541856 -0.24064048 -0.0629129 0.3731118 -0.16603269
-0.29534635 -0.15488203 -0.22827187 -0.3311798 -0.20745017 -0.16274208 -0.31410125 -0.106945254
-0.24468043 -0.43991128 -0.11615404 -0.15819532 -0.41337854 -0.13263147 -0.33310264 -0.25847754
-0.09254706 0.11593961 -0.19737904 -0.12676421 -0.2412428 0.09897247 -0.008248136 -0.5368702
-0.28614908 -0.08851861 -0.3202615 0.24042407 0.044393383 -0.32876936 -0.18832462 0.24596801
-0.22811621 -0.03023203 0.06276293 -0.31128225 -0.087447524 -0.21971102 0.07042866 -0.059526958
-0.36229756 -0.25834754 -0.2577191 -0.19364247 -0.09486129 -0.25183973 -0.35559544 0.053358767
-0.16217701 -0.07452088 0.10301724 -0.0005760555 0.10383361 -0.10768212 -0.54448473 -0.42651263
-0.2125072 -0.31577206 -0.08730616 -0.13876389 -0.28343394 -0.16755599 0.036799867 -0.09294224
-0.268589 -0.3557137 0.1633405 0.06583557 -0.25927657 -0.07789608 -0.090905525 0.34546596
-0.08558024 0.05127353 0.063921146 0.18499795 0.19703104 0.15139121 -0.10316521 -0.31450176
-0.28299162 -0.14671735 0.25007576 -0.16905212 -0.23588748 -0.14715423 0.13898407 -0.3090934
-0.31078297 0.12709273 -0.3095187 -0.20003021 -0.10762463 0.046478227 -0.33138108 0.7069116
-0.026402488 -0.12030948 -0.023833288 0.06448322 -0.28152668 -0.09315523 -0.44061133 -0.3054569
-0.0052848053 0.02109865 -0.5691876 -0.1320846 -0.007647828 -0.39963 -0.12042212 -0.043534618
-0.36433032 0.032468334 -0.05622776 0.058932245 -0.037375983 -0.08334453 0.2072553 -0.18299037
1.0373532 0.23766848 0.1958243 -0.034656595 -0.16629913 -0.29640839 0.02341989 0.35081807

linear2.weight f4 [3, 256]
00000000: 6774 e13d aef6 ca3a db4d 333d 45e5 393e
00000010: df81 6bbd 1711 60be c81b c8bd 9b37 553d
00000020: 7791 07bf e1c6 8b3c e102 5a3d 737b 48be
00000030: 27ca aebe 3615 763e 3eed 80bc 7726 4ebd
00000040: 3a31 bfbc 58f0 863e 8ab9 a4be 8c33 953d
00000050: 015d 643d a1a6 623e 4bdb 083e 5910 5ebe
00000060: 0f38 603d 930a eabd 855f a03e b0a6 8bbd
00000070: f149 2d3e 65d1 953e b71e 8bbc 7f3e 1b3f
00000080: 5dde 62be de05 a93e 22db 4fbd e490 29bd
00000090: b7af 123f 4491 bbbd 2c12 25bf 9dfb 8dbe
000000a0: 93fd e43e a18a 9dbb a758 e43e 856f a93e
000000b0: d45a 7e3e c96f 823e 653e 2f3e 29ba dbbd
000000c0: 8722 86be c403 92bd d7c9 993c 15f0 9b3e
000000d0: dd10 073f d725 a63b cbcb d7be 68c9 473d
000000e0: 75d1 99be 2d4f 553d c17c 943d 2a37 23bd
000000f0: 3071 33be fea8 a53c 9b7c 0dbc a1ae f0bd
00000100: 5641 a73e 216c c8bd 11b7 63bd d62e c13e
00000110: ae10 0d3c 6949 f73d bbd2 503e 2973 9bbd
00000120: c95e e83e 35ee 8e3d f031 1cbe 7d9d 5fbe
00000130: 5238 963e 7bdf 21bf 27d7 3fbf 6f4a a8bc
00000140: 81fd 58be 1acb 933e ea98 f83a c918 8fbd
00000150: 50c2 6ebd f93b 723e ea1f 1a3f eaff 8abe
00000160: 3acd 2ebb 6495 67be 351f 6f3e 74d6 a83d
00000170: d320 093e e03d a6bc 1ccf ce3e 1446 cd3e
00000180: 6966 bfbe e24a 5a3e beaa 88bc 9fc7 943d
00000190: cfa3 17be a9c4 29be dd9f 033d 4226 bcbd
000001a0: 5b43 26bd ed8c a0be cc43 e0bc 64bf 513e
000001b0: 311c 333c ad02 523c cf41 663e cd68 35bd
000001c0: 74a5 aebe c447 303d 93a1 523e bedb 2b3d
000001d0: 6bad cc3e 6c34 07bd 64b6 363e 789b 283d
000001e0: aff1 15bc 5347 4abf 81ce 803e 0916 933d
000001f0: 68d1 673c eaad 8dbd fd0c 823e ad77 c03e
00000200: fabd b4bd 39d8 24be 1adb 1abc b6d5 06bd
00000210: 50f1 023d 8b8f 1abe 655b 16be 89bf b7be
00000220: 492d 023d 51c4 a53c 5770 e4bd b857 8dbe
00000230: 5669 01be 2357 c7bb afc4 4abc d18a a6bc
00000240: 63b5 20be 7c84 bbbd 10df b7bc 6b29 01be
00000250: 236e 593d a7b1 d73d 382c 843d c485 a4be
00000260: 2319 3fbe b5bc 843c efa4 f73d bb84 813e
00000270: a2f2 cb3e 8c88 d3bb 5147 21bd ef55 1d3f
00000280: 4281 aebc 541e 133e ca8a ca3e d29b 933e
00000290: 7475 7a3c a191 813e d093 103f b249 d73e
000002a0: 2953 02be 43f7 6abc ff26 9cbe d02a 9d3d
000002b0: 7e97 93be 216d 7cbc 0518 85bd 6517 823e
000002c0: 1eff 79be e814 e03e 47fa b83e 439e 9fbd
000002d0: 9a36 b13c d589 24bc e8b5 a13a e4b4 b1be
000002e0: 0c0d 94bd 0e7d 00be b446 b33e b48a 2a3d
000002f0: c1ac a03b 6bf4 13be 70a0 813e d0d6 a4be
00000300: c033 1abc aef5 f8bc 613b a03e ce61 a5be
00000310: 2660 7fbe 183b dd3b e38d e73e 0ab5 cf3e
00000320: 39c0 4bbe 1890 a5be 6189 1a3e 39b8 5d3e
00000330: 46b1 cc3e aaa0 5e3e b5b1 f33e dcd5 8ebe
00000340: 621a 71bd 77e5 b1be 5cb2 4d3d ddde 6bbe
00000350: 12b8 98bd 72ae 0dbe a710 ad3d c8ae 4f3e
00000360: ea4e 0a3c fbbf bf3d 7807 19be c87b dcbd
00000370: 9b3e 22be 5fd9 113f 18ff 25be 711e b03e
00000380: ed40 3dbe 0ec8 40be ca50 173f 7dfd 79be
00000390: 9e01 3f3d 7e57 28bf 8094 98be d179 8cbd
000003a0: f6a4 013f 809c 053e ad18 093d 06ef 0bbe
000003b0: 2ab0 a43d cf99 9cbe 0a1c 953d cf73 f13d
000003c0: 0d8a 13be 2106 cd3e e918 97be d99e a23e
000003d0: 4738 2fbe 85db c5bd c877 c53e 656f c5be
000003e0: 4d5d 9f3e 2944 db3e 2a05 023f 78c4 c63e
000003f0: 06d7 503e f122 b7bd 660c a63d 2cfa 343e
0.1100853 0.0015484893 0.04377542 0.18153866 -0.0574969 -0.2188152 -0.09770924 0.052054983
-0.52956337 0.017062606 0.0532254 -0.19578342 -0.34138605 0.24031529 -0.015738126 -0.05032965
-0.023338903 0.26355243 -0.32172805 0.072852224 0.055752758 0.22133876 0.13364904 -0.21685924
0.05474096 -0.11427798 0.31322876 -0.068189025 0.16922738 0.29261318 -0.01698242 0.60642236
-0.22155137 0.3301229 -0.05074609 -0.041397944 0.5729937 -0.091585666 -0.64480853 -0.27731028
0.44724712 -0.0048077856 0.44598886 0.33092895 0.24839336 0.2547591 0.17113645 -0.107288666
-0.26198217 -0.071296245 0.018773003 0.30456606 0.52760106 0.005070429 -0.4214767 0.04877606
-0.30042616 0.05207746 0.072503574 -0.03984753 -0.17523646 0.020222183 -0.008635665 -0.11752058
0.32667035 -0.09786249 -0.055594508 0.37731045 0.008609934 0.12074549 0.20392887 -0.075903244
0.45384815 0.06979028 -0.15253425 -0.21837421 0.29339844 -0.6323163 -0.7493767 -0.020543305
-0.21190454 0.28865892 0.001896647 -0.06987149 -0.05829078 0.2365569 0.60204947 -0.27148372
-0.0026672618 -0.22615582 0.23351748 0.08244029 0.13391428 -0.020293176 0.40392387 0.40092528
-0.3738282 0.21317628 -0.016682979 0.07264637 -0.14808582 -0.16578926 0.03213488 -0.091869846
-0.04059158 -0.31357518 -0.027376078 0.20483166 0.010932014 0.012818021 0.22486041 -0.0442894
-0.34110606 0.04303719 0.20569448 0.04195761 0.39976057 -0.033008978 0.17843014 0.04116389
-0.00915186 -0.7901508 0.2515755 0.07181937 0.014149047 -0.06917937 0.25400534 0.37591305
-0.08825298 -0.16098107 -0.009451652 -0.032918654 0.031968415 -0.1509382 -0.14683302 -0.35888317
0.03178147 0.020235213 -0.111542396 -0.27605987 -0.12637839 -0.0060833856 -0.012375995 -0.020329865
-0.15694194 -0.09156129 -0.022445232 -0.12613456 0.05308355 0.10531931 0.064537466 -0.32133305
-0.18661933 0.016203264 0.120920055 0.25296578 0.39833552 -0.0064554866 -0.039374653 0.6145925
-0.02130187 0.14367038 0.39559013 0.2882982 0.015286792 0.2530642 0.56475544 0.42048413
-0.12727036 -0.014341178 -0.30498502 0.076741815 -0.28826517 -0.015406878 -0.06498722 0.25408474
-0.24413726 0.4376595 0.36128446 -0.07793858 0.021632481 -0.010042627 0.0012337537 -0.3470832
-0.07229051 -0.12547705 0.3501488 0.041636184 0.0049034064 -0.14448707 0.25317717 -0.3219514
-0.009411752 -0.030390587 0.31295303 -0.32301182 -0.24939021 0.0067514293 0.45225438 0.4056781
-0.19897546 -0.32336497 0.15091468 0.21652307 0.39979 0.21740976 0.47596517 -0.27897537
-0.05886305 -0.3474538 0.050218925 -0.23034234 -0.074569836 -0.13836077 0.08450442 0.20281518
0.008441666 0.09362789 -0.14944255 -0.10765797 -0.15844195 0.56972307 -0.16210592 0.34398225
-0.18481798 -0.18826315 0.5910765 -0.24413104 0.0466324 -0.657585 -0.29800797 -0.06859172
0.50642335 0.13047981 0.0334708 -0.13665399 0.08041413 -0.30586097 0.07280739 0.11789667
-0.14408131 0.40043738 -0.29511192 0.31761816 -0.17111312 -0.09661011 0.38567948 -0.3856155
0.3112587 0.4282544 0.5078913 0.3882177 0.20394525 -0.089422114 0.081078336 0.17673558

linear2.bias f4 [3]
00000000: 53c1 853e 8e63 1e3e ab1c 2e3e
0.26124057 0.15467665 0.17003123
